…
: False}, 'decoder': {'num_layers': 2, 'in_dim': 64, 'mid_dim': 16, 'nonlinear': False}, 'weight_bias_generator': {'num_layers': 2, 'mid_dim': 64}, 'fourier_feature_mapping': {'num_features': {'source_position': 16, 'frequency': 8}, 'trainable': True}, 'freq_norm': 16000.0, 'radius_norm': 1.5, 'num_mes_norm': 865.0}})
2025-05-09 16:29:23,232 - logs - INFO - FreqSrcPosCondAutoEncoder(
  (ffm_srcpos): FourierFeatureMapping()
  (ffm_freq): FourierFeatureMapping()
  (encoder): Sequential(
    (0): HyperLinearBlock(
      (hyperlinear): HyperLinear(
        (weight_layers): Sequential(
          (0): Linear(in_features=50, out_features=64, bias=True)
          (1): LayerNorm((64,), eps=1e-05, elementwise_affine=True)
          (2): Mish()
          (3): Dropout(p=0.0, inplace=False)
          (4): ResLinearBlock(
            (layers1): Sequential(
              (0): Linear(in_features=64, out_features=64, bias=True)
              (1): Mish()
              (2): Dropout(p=0.0, inplace=False)
              (3): Linear(in_features=64, out_features=64, bias=True)
            )
            (layers2): Sequential(
              (0): Mish()
              (1): Dropout(p=0.0, inplace=False)
            )
          )
          (5): Linear(in_features=64, out_features=16, bias=True)
        )
        (bias_layers): Sequential(
          (0): Linear(in_features=50, out_features=64, bias=True)
          (1): LayerNorm((64,), eps=1e-05, elementwise_affine=True)
          (2): Mish()
          (3): Dropout(p=0.0, inplace=False)
          (4): ResLinearBlock(
            (layers1): Sequential(
              (0): Linear(in_features=64, out_features=64, bias=True)
              (1): Mish()
              (2): Dropout(p=0.0, inplace=False)
              (3): Linear(in_features=64, out_features=64, bias=True)
            )
            (layers2): Sequential(
              (0): Mish()
              (1): Dropout(p=0.0, inplace=False)
            )
          )
          (5): Linear(in_features=64, out_features=16, bias=True)
        )
      )
      (layers_post): Sequential(
        (0): Identity()
      )
    )
    (1): HyperLinearBlock(
      (hyperlinear): HyperLinear(
        (weight_layers): Sequential(
          (0): Linear(in_features=50, out_features=64, bias=True)
          (1): LayerNorm((64,), eps=1e-05, elementwise_affine=True)
          (2): Mish()
          (3): Dropout(p=0.0, inplace=False)
          (4): ResLinearBlock(
            (layers1): Sequential(
              (0): Linear(in_features=64, out_features=64, bias=True)
              (1): Mish()
              (2): Dropout(p=0.0, inplace=False)
              (3): Linear(in_features=64, out_features=64, bias=True)
            )
            (layers2): Sequential(
              (0): Mish()
              (1): Dropout(p=0.0, inplace=False)
            )
          )
          (5): Linear(in_features=64, out_features=1024, bias=True)
        )
        (bias_layers): Sequential(
          (0): Linear(in_features=50, out_features=64, bias=True)
          (1): LayerNorm((64,), eps=1e-05, elementwise_affine=True)
          (2): Mish()
          (3): Dropout(p=0.0, inplace=False)
          (4): ResLinearBlock(
            (layers1): Sequential(
              (0): Linear(in_features=64, out_features=64, bias=True)
              (1): Mish()
              (2): Dropout(p=0.0, inplace=False)
              (3): Linear(in_features=64, out_features=64, bias=True)
            )
            (layers2): Sequential(
              (0): Mish()
              (1): Dropout(p=0.0, inplace=False)
            )
          )
          (5): Linear(in_features=64, out_features=64, bias=True)
        )
      )
      (layers_post): Sequential(
        (0): Identity()
      )
    )
  )
  (decoder): Sequential(
    (0): HyperLinearBlock(
      (hyperlinear): HyperLinear(
        (weight_layers): Sequential(
          (0): Linear(in_features=49, out_features=64, bias=True)
          (1): LayerNorm((64,), eps=1e-05, elementwise_affine=True)
          (2): Mish()
          (3): Dropout(p=0.0, inplace=False)
          (4): ResLinearBlock(
            (layers1): Sequential(
              (0): Linear(in_features=64, out_features=64, bias=True)
              (1): Mish()
              (2): Dropout(p=0.0, inplace=False)
              (3): Linear(in_features=64, out_features=64, bias=True)
            )
            (layers2): Sequential(
              (0): Mish()
              (1): Dropout(p=0.0, inplace=False)
            )
          )
          (5): Linear(in_features=64, out_features=1024, bias=True)
        )
        (bias_layers): Sequential(
          (0): Linear(in_features=49, out_features=64, bias=True)
          (1): LayerNorm((64,), eps=1e-05, elementwise_affine=True)
          (2): Mish()
          (3): Dropout(p=0.0, inplace=False)
          (4): ResLinearBlock(
            (layers1): Sequential(
              (0): Linear(in_features=64, out_features=64, bias=True)
              (1): Mish()
              (2): Dropout(p=0.0, inplace=False)
              (3): Linear(in_features=64, out_features=64, bias=True)
            )
            (layers2): Sequential(
              (0): Mish()
              (1): Dropout(p=0.0, inplace=False)
            )
          )
          (5): Linear(in_features=64, out_features=16, bias=True)
        )
      )
      (layers_post): Sequential(
        (0): Identity()
      )
    )
    (1): HyperLinearBlock(
      (hyperlinear): HyperLinear(
        (weight_layers): Sequential(
          (0): Linear(in_features=49, out_features=64, bias=True)
          (1): LayerNorm((64,), eps=1e-05, elementwise_affine=True)
          (2): Mish()
          (3): Dropout(p=0.0, inplace=False)
          (4): ResLinearBlock(
            (layers1): Sequential(
              (0): Linear(in_features=64, out_features=64, bias=True)
              (1): Mish()
              (2): Dropout(p=0.0, inplace=False)
              (3): Linear(in_features=64, out_features=64, bias=True)
            )
            (layers2): Sequential(
              (0): Mish()
              (1): Dropout(p=0.0, inplace=False)
            )
          )
          (5): Linear(in_features=64, out_features=16, bias=True)
        )
        (bias_layers): Sequential(
          (0): Linear(in_features=49, out_features=64, bias=True)
          (1): LayerNorm((64,), eps=1e-05, elementwise_affine=True)
          (2): Mish()
          (3): Dropout(p=0.0, inplace=False)
          (4): ResLinearBlock(
            (layers1): Sequential(
              (0): Linear(in_features=64, out_features=64, bias=True)
              (1): Mish()
              (2): Dropout(p=0.0, inplace=False)
              (3): Linear(in_features=64, out_features=64, bias=True)
            )
            (layers2): Sequential(
              (0): Mish()
              (1): Dropout(p=0.0, inplace=False)
            )
          )
          (5): Linear(in_features=64, out_features=1, bias=True)
        )
      )
      (layers_post): Sequential(
        (0): Identity()
      )
    )
  )
)
2025-05-09 16:29:23,233 - logs - INFO - Epoch 1 Training:
2025-05-09 16:30:48,769 - logs - INFO - Validation:
2025-05-09 16:30:53,848 - logs - INFO - all: 5.070, lsd: 4.949, ae_itd: 4.850e-05
2025-05-09 16:30:53,886 - logs - INFO - Saved in exp/v1_linear/checkpoint_best.pt.
…
