…
q': False}, 'decoder': {'num_layers': 2, 'in_dim': 64, 'mid_dim': 16, 'use_freq': False}, 'weight_bias_generator': {'num_layers': 2, 'mid_dim': 64}, 'fourier_feature_mapping': {'num_features': {'source_position': 16, 'frequency': 8}, 'trainable': True}, 'freq_norm': 16000.0, 'radius_norm': 1.5, 'num_mes_norm': 865.0}}
2025-05-09 17:03:26,765 - logs - INFO - FreqSrcPosCondAutoEncoder(
  (ffm_srcpos): FourierFeatureMapping()
  (ffm_freq): FourierFeatureMapping()
  (encoder): Sequential(
    (0): HyperLinearBlock(
      (hyperlinear): HyperLinear(
        (weight_layers): Sequential(
          (0): Linear(in_features=34, out_features=64, bias=True)
          (1): LayerNorm((64,), eps=1e-05, elementwise_affine=True)
          (2): Mish()
          (3): Dropout(p=0.0, inplace=False)
          (4): ResLinearBlock(
            (layers1): Sequential(
              (0): Linear(in_features=64, out_features=64, bias=True)
              (1): Mish()
              (2): Dropout(p=0.0, inplace=False)
              (3): Linear(in_features=64, out_features=64, bias=True)
            )
            (layers2): Sequential(
              (0): Mish()
              (1): Dropout(p=0.0, inplace=False)
            )
          )
          (5): Linear(in_features=64, out_features=16, bias=True)
        )
        (bias_layers): Sequential(
          (0): Linear(in_features=34, out_features=64, bias=True)
          (1): LayerNorm((64,), eps=1e-05, elementwise_affine=True)
          (2): Mish()
          (3): Dropout(p=0.0, inplace=False)
          (4): ResLinearBlock(
            (layers1): Sequential(
              (0): Linear(in_features=64, out_features=64, bias=True)
              (1): Mish()
              (2): Dropout(p=0.0, inplace=False)
              (3): Linear(in_features=64, out_features=64, bias=True)
            )
            (layers2): Sequential(
              (0): Mish()
              (1): Dropout(p=0.0, inplace=False)
            )
          )
          (5): Linear(in_features=64, out_features=16, bias=True)
        )
      )
      (layers_post): Sequential(
        (0): LayerNorm((16,), eps=1e-05, elementwise_affine=True)
        (1): Mish()
        (2): Dropout(p=0.0, inplace=False)
      )
    )
    (1): HyperLinearBlock(
      (hyperlinear): HyperLinear(
        (weight_layers): Sequential(
          (0): Linear(in_features=34, out_features=64, bias=True)
          (1): LayerNorm((64,), eps=1e-05, elementwise_affine=True)
          (2): Mish()
          (3): Dropout(p=0.0, inplace=False)
          (4): ResLinearBlock(
            (layers1): Sequential(
              (0): Linear(in_features=64, out_features=64, bias=True)
              (1): Mish()
              (2): Dropout(p=0.0, inplace=False)
              (3): Linear(in_features=64, out_features=64, bias=True)
            )
            (layers2): Sequential(
              (0): Mish()
              (1): Dropout(p=0.0, inplace=False)
            )
          )
          (5): Linear(in_features=64, out_features=1024, bias=True)
        )
        (bias_layers): Sequential(
          (0): Linear(in_features=34, out_features=64, bias=True)
          (1): LayerNorm((64,), eps=1e-05, elementwise_affine=True)
          (2): Mish()
          (3): Dropout(p=0.0, inplace=False)
          (4): ResLinearBlock(
            (layers1): Sequential(
              (0): Linear(in_features=64, out_features=64, bias=True)
              (1): Mish()
              (2): Dropout(p=0.0, inplace=False)
              (3): Linear(in_features=64, out_features=64, bias=True)
            )
            (layers2): Sequential(
              (0): Mish()
              (1): Dropout(p=0.0, inplace=False)
            )
          )
          (5): Linear(in_features=64, out_features=64, bias=True)
        )
      )
      (layers_post): Sequential(
        (0): Identity()
      )
    )
  )
  (decoder): Sequential(
    (0): HyperLinearBlock(
      (hyperlinear): HyperLinear(
        (weight_layers): Sequential(
          (0): Linear(in_features=33, out_features=64, bias=True)
          (1): LayerNorm((64,), eps=1e-05, elementwise_affine=True)
          (2): Mish()
          (3): Dropout(p=0.0, inplace=False)
          (4): ResLinearBlock(
            (layers1): Sequential(
              (0): Linear(in_features=64, out_features=64, bias=True)
              (1): Mish()
              (2): Dropout(p=0.0, inplace=False)
              (3): Linear(in_features=64, out_features=64, bias=True)
            )
            (layers2): Sequential(
              (0): Mish()
              (1): Dropout(p=0.0, inplace=False)
            )
          )
          (5): Linear(in_features=64, out_features=1024, bias=True)
        )
        (bias_layers): Sequential(
          (0): Linear(in_features=33, out_features=64, bias=True)
          (1): LayerNorm((64,), eps=1e-05, elementwise_affine=True)
          (2): Mish()
          (3): Dropout(p=0.0, inplace=False)
          (4): ResLinearBlock(
            (layers1): Sequential(
              (0): Linear(in_features=64, out_features=64, bias=True)
              (1): Mish()
              (2): Dropout(p=0.0, inplace=False)
              (3): Linear(in_features=64, out_features=64, bias=True)
            )
            (layers2): Sequential(
              (0): Mish()
              (1): Dropout(p=0.0, inplace=False)
            )
          )
          (5): Linear(in_features=64, out_features=16, bias=True)
        )
      )
      (layers_post): Sequential(
        (0): LayerNorm((16,), eps=1e-05, elementwise_affine=True)
        (1): Mish()
        (2): Dropout(p=0.0, inplace=False)
      )
    )
    (1): HyperLinearBlock(
      (hyperlinear): HyperLinear(
        (weight_layers): Sequential(
          (0): Linear(in_features=33, out_features=64, bias=True)
          (1): LayerNorm((64,), eps=1e-05, elementwise_affine=True)
          (2): Mish()
          (3): Dropout(p=0.0, inplace=False)
          (4): ResLinearBlock(
            (layers1): Sequential(
              (0): Linear(in_features=64, out_features=64, bias=True)
              (1): Mish()
              (2): Dropout(p=0.0, inplace=False)
              (3): Linear(in_features=64, out_features=64, bias=True)
            )
            (layers2): Sequential(
              (0): Mish()
              (1): Dropout(p=0.0, inplace=False)
            )
          )
          (5): Linear(in_features=64, out_features=16, bias=True)
        )
        (bias_layers): Sequential(
          (0): Linear(in_features=33, out_features=64, bias=True)
          (1): LayerNorm((64,), eps=1e-05, elementwise_affine=True)
          (2): Mish()
          (3): Dropout(p=0.0, inplace=False)
          (4): ResLinearBlock(
            (layers1): Sequential(
              (0): Linear(in_features=64, out_features=64, bias=True)
              (1): Mish()
              (2): Dropout(p=0.0, inplace=False)
              (3): Linear(in_features=64, out_features=64, bias=True)
            )
            (layers2): Sequential(
              (0): Mish()
              (1): Dropout(p=0.0, inplace=False)
            )
          )
          (5): Linear(in_features=64, out_features=1, bias=True)
        )
      )
      (layers_post): Sequential(
        (0): Identity()
      )
    )
  )
)
2025-05-09 17:03:26,766 - logs - INFO - Epoch 1 Training:
2025-05-09 17:06:29,345 - logs - INFO - Validation:
2025-05-09 17:06:35,934 - logs - INFO - all: 5.014, lsd: 4.900, ae_itd: 4.573e-05
2025-05-09 17:06:35,974 - logs - INFO - Saved in exp/v1_wo-freq-cond/checkpoint_best.pt.
…
